…
66 100
67 100
68 100
69 100
70 100
71 100
72 100
73 100
74 100
75 100
76 100
77 100
78 100
79 100
80 100
81 100
82 100
83 100
84 100
85 100
86 100
87 100
88 100
89 100
90 100
91 100
92 100
93 100
94 100
95 100
96 100
97 100
98 100
99 100
(15351505, 28, 28, 1) (15351505,)
__________________________________________________________________________________________________
Layer (type)                    Output Shape         Param #     Connected to                     
==================================================================================================
input_1 (InputLayer)            (None, 28, 28, 1)    0                                            
__________________________________________________________________________________________________
conv2d_1 (Conv2D)               (None, 28, 28, 48)   1248        input_1[0][0]                    
__________________________________________________________________________________________________
leaky_re_lu_1 (LeakyReLU)       (None, 28, 28, 48)   0           conv2d_1[0][0]                   
__________________________________________________________________________________________________
concatenate_1 (Concatenate)     (None, 28, 28, 49)   0           leaky_re_lu_1[0][0]              
                                                                 input_1[0][0]                    
__________________________________________________________________________________________________
batch_normalization_1 (BatchNor (None, 28, 28, 49)   196         concatenate_1[0][0]              
__________________________________________________________________________________________________
conv2d_2 (Conv2D)               (None, 28, 28, 48)   58848       batch_normalization_1[0][0]      
__________________________________________________________________________________________________
leaky_re_lu_2 (LeakyReLU)       (None, 28, 28, 48)   0           conv2d_2[0][0]                   
__________________________________________________________________________________________________
concatenate_2 (Concatenate)     (None, 28, 28, 97)   0           leaky_re_lu_2[0][0]              
                                                                 batch_normalization_1[0][0]      
__________________________________________________________________________________________________
batch_normalization_2 (BatchNor (None, 28, 28, 97)   388         concatenate_2[0][0]              
__________________________________________________________________________________________________
conv2d_3 (Conv2D)               (None, 28, 28, 48)   116448      batch_normalization_2[0][0]      
__________________________________________________________________________________________________
leaky_re_lu_3 (LeakyReLU)       (None, 28, 28, 48)   0           conv2d_3[0][0]                   
__________________________________________________________________________________________________
concatenate_3 (Concatenate)     (None, 28, 28, 145)  0           leaky_re_lu_3[0][0]              
                                                                 batch_normalization_2[0][0]      
__________________________________________________________________________________________________
batch_normalization_3 (BatchNor (None, 28, 28, 145)  580         concatenate_3[0][0]              
__________________________________________________________________________________________________
conv2d_4 (Conv2D)               (None, 28, 28, 48)   7008        batch_normalization_3[0][0]      
__________________________________________________________________________________________________
leaky_re_lu_4 (LeakyReLU)       (None, 28, 28, 48)   0           conv2d_4[0][0]                   
__________________________________________________________________________________________________
concatenate_4 (Concatenate)     (None, 28, 28, 193)  0           leaky_re_lu_4[0][0]              
                                                                 batch_normalization_3[0][0]      
__________________________________________________________________________________________________
batch_normalization_4 (BatchNor (None, 28, 28, 193)  772         concatenate_4[0][0]              
__________________________________________________________________________________________________
global_average_pooling2d_1 (Glo (None, 193)          0           batch_normalization_4[0][0]      
__________________________________________________________________________________________________
dropout_1 (Dropout)             (None, 193)          0           global_average_pooling2d_1[0][0] 
__________________________________________________________________________________________________
dense_1 (Dense)                 (None, 100)          19400       dropout_1[0][0]                  
==================================================================================================
Total params: 204,888
Trainable params: 203,920
Non-trainable params: 968
__________________________________________________________________________________________________
Train on 13048779 samples, validate on 2302726 samples
Epoch 1/20

      32/13048779 [..............................] - ETA: 223:27:01 - loss: 4.6543 - acc: 0.0000e+00
…
